data.pth (torch, 4887 bytes, 6 tensors)

l1.weight f4 [8, 48]
00000000: ec35 13be 0495 c13d 2ca1 1c3d 645f cb3d
00000010: e8b1 25bd 180d f4bc 401e 583c 00a8 e4bb
00000020: f8e5 4f3d f504 ebbd 82fa e2bd c68b 16bd
00000030: e4f8 393d c45d 63bd 6ab9 f4bd 80b3 e23d
00000040: 2d69 a3bd 7016 373c 40ed 0e3d 8039 cd3a
00000050: bc41 6dbd 309d f63d a806 efbd a0dd 1dbc
00000060: baad 4bbd 703b d13d b403 463d 91c8 bdbd
00000070: 9861 00be 4465 5c3d 7697 9c3d 2017 173c
00000080: 201b cdbc e253 adbd c06b 233d 1cdf 543d
00000090: b051 54bc 44a2 e9bd 2019 eb3c 666e ebbd
000000a0: 7030 203c cadf 0fbd fa00 093e ce66 133e
000000b0: a0f6 fe3c e0af f63c 9220 f7bd 4090 4a3b
000000c0: a9a7 b83e 1f1a d2bc d47d d13e 1fd4 413e
000000d0: db04 1dbe 9aba fa3e 6120 933e b528 c93e
000000e0: bb43 b23c 8680 a4bd d51c bfbd 1b6b 67bd
000000f0: 941e 2a3e f8f6 b93c 3921 9bbd 647d 4a3e
00000100: 9088 f63d dbef 00be ae18 97bd 1620 07be
00000110: 7322 153f cee7 debe 8a5f c93e 77d7 3f3d
00000120: 8d37 afbd d8da 0bbe 3118 a23e 3db8 4b39
00000130: d8ec 533e 815b 3fbe 0321 383d e61d 2c3f
00000140: 4864 063d edf5 febd fc47 e33d 6167 71be
00000150: 26db 06bd 3566 d4bc 5a8b 0b3e 8c72 b23e
00000160: d9d2 f13e 8382 e93e 6045 f93e 736a fc3e
00000170: 350e c83d 3f5a a2bd 3ad7 d43d 7ac8 ca3e
00000180: bf79 8abd 275b 473e 0071 723c 9c02 503e
00000190: 0156 c73e 237b a73e 60ed f7bd 0646 35bd
000001a0: e316 453e 37b8 60bd 2e06 933e cbc3 c93e
000001b0: 4510 a1be 9586 37be 855d fc3e a63b 48be
000001c0: 1e76 1fbc 976e db3e cb5a 873e 93d5 fb3e
000001d0: ccd6 523e b1bb 663e 5c04 a43d 1560 c53e
000001e0: c373 98be ca9d 1ebe a006 4a3c acbb a63e
000001f0: 491a a5be 3842 c0be d65a 023e 3485 383d
00000200: b118 bbbe 11c5 f6bd 4c02 953e 9d08 0d3f
00000210: e78f ab3e 8553 6b3e dc04 1ebe 805e 59bd
00000220: ebe3 2abf 0e4c 0d3e 4981 2e3d fe60 b63e
00000230: 71a2 d939 1d3f a7be d816 583e 3183 29be
00000240: fcf8 e13e c8c8 873d 99d5 be3e 43b1 4cbe
00000250: 53d2 b5bd 75ea 95bd 9a26 5b3e 1aeb 9c3e
00000260: bab7 1dbe dac7 163e 4d9c 2bbe 2c30 f53d
00000270: 8a1e 203e 8026 933e 37d3 1ebd 53df f23e
00000280: 82d5 babd 3ed2 7cbe d7ef 333e 5e99 4c3d
00000290: c24a d5be 4e9b 063f c1d9 db3e 1bec 2ebe
000002a0: 7d65 f03d 74de 703e da74 c83e 6fe7 223d
000002b0: 7326 133f 93e8 ac3e 129c 0dbd 0883 20be
000002c0: 1b1b f23e c391 b73e 6a98 11be efc6 c43e
000002d0: b89d 1e3e 4195 c53d 7751 c43e 49d2 703e
000002e0: 8b75 52be c9ff db3e 6379 993d 0f19 bbbe
000002f0: 6b38 a73c 5172 0f3f 9752 3f3e 95d9 81bd
00000300: 8c4d 6b3d d8f1 0cbd a659 c63d a0f0 693e
00000310: 07b5 953d 4078 cf3e f05d 153c 607d 113d
00000320: e975 fdbd 01a5 5abe 15f3 123d 739d 153e
00000330: ccf8 97be c3c2 64be af1f 0d3e d5d8 563e
00000340: 93cc dcbd 010f d33d e468 e7bd fde8 a13e
00000350: a518 b43e 22f3 313e d072 6bbc 1412 1abe
00000360: a233 19be e4de 52bc 8659 a73d 42cc f23d
00000370: 6b37 b1be fd55 80be 7fba 7ebe 0114 ed3e
00000380: a175 b6be 243a a33d 986c 933d d63e 8fbe
00000390: 1707 4fbd b5bc fabd 32ab 9dbd dee2 dbbd
000003a0: 3285 24bf c081 1abc 7cd6 883e c43c a93e
000003b0: 4800 5e3d 71c7 8ebd c75c 433e 921d 883e
000003c0: 48dd 4c3c e6d0 2d3e 7c13 0e3e c4a3 18be
000003d0: 2153 94be c3ea 133e d85c 76bb a110 babd
000003e0: c236 8f3d 2bf9 593e 4e3a c4bd c4ae 83be
000003f0: f566 343f 7c87 04bd cde8 c03c 927a 2cbd
-0.14376038 0.094522506 0.038239643 0.09930304 -0.040452868 -0.0297914 0.013190806 -0.006978035
0.050756425 -0.11475555 -0.11082937 -0.036754392 0.045403376 -0.055509344 -0.119494274 0.11069393
-0.07979045 0.011174783 0.034894228 0.0015657395 -0.057924017 0.120417 -0.116711915 -0.009635359
-0.049726225 0.10216415 0.048343375 -0.09266771 -0.12537229 0.053807512 0.076460764 0.009221822
-0.025037348 -0.08463265 0.03989768 0.051970586 -0.012958929 -0.11407903 0.028698504 -0.11495666
0.009777173 -0.03512553 0.13379279 0.14394686 0.03112346 0.03011316 -0.12066759 0.0030908734
0.36065415 -0.025647221 0.40916312 0.18928574 -0.15333883 0.4897049 0.2873564 0.3928887
0.021760812 -0.080323264 -0.09331671 -0.056498628 0.16613227 0.022700772 -0.07574696 0.19774395
0.12037766 -0.12591498 -0.07377754 -0.13195834 0.5825569 -0.43536228 0.39330703 0.046836343
-0.08555517 -0.13657701 0.31659082 0.00019428223 0.20695817 -0.1868725 0.044953357 0.6723312
0.03281048 -0.1244925 0.11097714 -0.23574592 -0.03292384 -0.025927642 0.13627377 0.34853017
0.47231176 0.45607385 0.4868574 0.49299964 0.09768335 -0.07927369 0.10392614 0.39606076
-0.067615025 0.19468366 0.014797449 0.20313495 0.38932803 0.32711133 -0.121058226 -0.044256233
0.19247012 -0.05486318 0.28715652 0.3940719 -0.31457725 -0.17922433 0.492901 -0.19554004
-0.009732751 0.4285781 0.26436457 0.49186382 0.20589751 0.22532536 0.08008644 0.38549867
-0.2977582 -0.15489879 0.012330681 0.32565057 -0.32246616 -0.3755052 0.12729964 0.045048907
-0.36542276 -0.12049306 0.29103315 0.5509127 0.33508226 0.22981079 -0.15431541 -0.053068638
-0.66754025 0.13798544 0.042603765 0.35620874 0.00041510494 -0.3266534 0.21102464 -0.16553952
0.44135273 0.06630093 0.37272337 -0.19989495 -0.08878007 -0.0732011 0.21401444 0.30648118
-0.15402117 0.14724675 -0.16758843 0.11972079 0.1563665 0.2874031 -0.03877565 0.47436008
-0.09122755 -0.24689576 0.1757196 0.04995095 -0.41658598 0.52580726 0.4293957 -0.17082255
0.11738107 0.23522359 0.3915165 0.039771494 0.57480544 0.3377119 -0.03457267 -0.15674984
0.47286305 0.35853395 -0.14218298 0.38433024 0.15489852 0.096476085 0.38343403 0.23517717
-0.20552652 0.42968586 0.07493856 -0.36542556 0.020412644 0.5603381 0.1868385 -0.063403286
0.057447 -0.034410328 0.09685068 0.22845697 0.07309919 0.4052143 0.009116635 0.035519958
-0.12376005 -0.21352006 0.035876352 0.14610843 -0.29682004 -0.2233992 0.13781618 0.20981152
-0.10781207 0.10305596 -0.11299303 0.31623068 0.35175052 0.17377904 -0.014370635 -0.15045959
-0.14961103 -0.012870524 0.08171372 0.11855365 -0.34612593 -0.25065604 -0.2487583 0.46304324
-0.3563662 0.07970074 0.07198447 -0.27977628 -0.05054387 -0.12243024 -0.076986685 -0.10736631
-0.6426574 -0.009430349 0.2672614 0.33054173 0.054199487 -0.06971634 0.1907836 0.2658506
0.012503929 0.1697422 0.1387462 -0.14906222 -0.28969672 0.14445023 -0.003759196 -0.09085203
0.06992866 0.21286456 -0.09581433 -0.25719273 0.704696 -0.03235577 0.023548508 -0.04210908

l1.bias f4 [8]
00000000: 56f4 10be 542e 073e a566 de3e c47b c83e
00000010: ee26 493e acd4 6e3e 245a d73e cb60 c63e
-0.14155707 0.13201267 0.43437687 0.39156926 0.19643757 0.23323315 0.4206096 0.38745722

l2.weight f4 [8, 8]
00000000: 07bd 913e 779c 123f fb85 303f 439d 0bbf
00000010: 8dee 1d3f 32ec 483e f1e8 11bf b718 3ebe
00000020: d062 163d 36b6 6e3f 319e f3be 355e a9be
00000030: f514 073f 9efc 2a3f 100f 1fbf 45c9 90be
00000040: 580c 433d 92cf e73d ec05 5ebe 03cd 033f
00000050: a2ae c33d f2b7 0dbf 308c 713f 587e 843f
00000060: 8da7 893e cd0d 85be 2c95 263f 5a1b a1be
00000070: 3ca4 5a3e aa94 0dbf c13a ee3d 535a e43e
00000080: 68f6 c43d 8539 973e 14c4 bebe 6bd3 363e
00000090: c081 0abf ff82 1e3f 6585 01bf 3665 e4bc
000000a0: e0e3 d4bd 56fe 05bf 7348 ed3e c06c 113f
000000b0: 5279 2ebe 0718 893e 666c 0bbd 0669 593d
000000c0: 10d0 573d 4b09 493f fba8 74bf 45d5 df3e
000000d0: b402 04bf 13f5 383f 9acb 303f e0aa 2c3f
000000e0: 6997 5fbe e3aa 273f 1b67 193f b2c9 07bf
000000f0: b769 4d3f 4197 dfbd d3c1 eb3e c8aa 043e
0.2846453 0.57269996 0.6895444 -0.5453684 0.61692125 0.19621351 -0.56996065 -0.18564115
0.03671533 0.9324678 -0.47581628 -0.33079687 0.5276635 0.66791713 -0.6213236 -0.28278556
0.047619194 0.11318888 -0.21681947 0.514847 0.09554793 -0.55358803 0.94354534 1.0351057
0.26885644 -0.25987092 0.6507137 -0.3146618 0.21351713 -0.5530497 0.116323 0.44600162
0.09617311 0.2953607 -0.3725897 0.17854087 -0.5410423 0.61918634 -0.5059417 -0.027880292
-0.10395026 -0.5234121 0.46344337 0.56806564 -0.17038468 0.26776144 -0.034038924 0.053078674
0.05268866 0.78529805 -0.95570344 0.437174 -0.51566625 0.72248954 0.6906067 0.67448235
-0.21835102 0.6549513 0.5992295 -0.5304214 0.80239433 -0.10917521 0.46046314 0.12955773

l2.bias f4 [8]
00000000: c6f5 85be 043b 833e adca cc3e c55d 9dbd
00000010: ef13 083e e806 283f ebca 1f3e e49b 9a3e
-0.26164073 0.25630963 0.3999838 -0.07683901 0.13288854 0.6563554 0.15604751 0.3019706

l3.weight f4 [9, 8]
00000000: 113d b3be d95a cbbe 2ff9 0c3f f743 d5be
00000010: d26a 15bf 709c 813e ccd3 0f3c c574 003e
00000020: b07b a3be e2de 0ebf 1892 063f fb00 263f
00000030: 40a4 46bf 1f69 df3e 3d2b 2ebf 0036 c23e
00000040: 8eca 103f 23f1 803e ac50 22bf 5e1f 0dbe
00000050: 6d27 64bf 9cf2 3bbf fdaa 27be fcfa 3c3f
00000060: 1e04 80bf d43f e33e fe90 f0be d539 b9be
00000070: ede7 333f 2c4b 953e a499 b23e f38b 82bf
00000080: 440b fd3d bcbe fb3e 24b7 77be bf7c c7bd
00000090: d214 eb3e 7160 b8be f619 983e a33b 913d
000000a0: ea2e 403d ddde bdbb e798 dbbd 000f 27be
000000b0: 1a0a c9be d480 2cbe d096 7cbe a53e 0e3e
000000c0: b7e3 33bf 2e02 eabe 7a21 203f eaf2 94be
000000d0: 524c dabe 2a04 45be 95c4 1f3f 9a02 cbbe
000000e0: f585 11be b179 ffbe 6f67 7bbe 543b 4fbe
000000f0: 4ff5 57bd 47c8 2e3f 1a19 25bf 336f 00be
00000100: fff0 0bbf f9a8 7e3e 9fa2 883d 04cd 98be
00000110: 27bb 8f3e b119 bbbd 1df2 13be 1f44 4a3c
-0.35007527 -0.3971775 0.55067724 -0.41653416 -0.5836612 0.25314665 0.008778524 0.12544544
-0.31930304 -0.5580884 0.5256667 0.64845246 -0.77594376 0.4363489 -0.68034726 0.37931824
0.56559074 0.25183973 -0.63404346 -0.13781497 -0.8912266 -0.7341707 -0.1637382 0.7382047
-1.0001256 0.44384634 -0.4698562 -0.36176935 0.70275766 0.29158914 0.34882843 -1.0198959
0.12355664 0.49168956 -0.24190956 -0.0974059 0.45914322 -0.3601108 0.29707307 0.07091453
0.04691974 -0.0057943896 -0.10722523 -0.16314316 -0.3926552 -0.16846019 -0.24666905 0.13891084
-0.7026934 -0.45704788 0.6255108 -0.2909158 -0.42636353 -0.1923987 0.62409335 -0.39650422
-0.14211257 -0.4989753 -0.24551176 -0.20237476 -0.05272418 0.6827435 -0.64491427 -0.12542419
-0.54664606 0.24869145 0.066716425 -0.29843915 0.28072473 -0.091357596 -0.14447828 0.012345343

l3.bias f4 [9]
00000000: 126a 933e de98 153f 3f00 913e 9c1c c73e
00000010: 29a7 97bd c20f b9be 771a adbc 6fb3 1c3f
00000020: cd22 5a3e
0.28791863 0.5843638 0.283205 0.38889015 -0.0740493 -0.36144835 -0.021130783 0.61211294
0.21302338
